…
I0425 13:03:40.923780 29258 solver.cpp:70] Creating training net from net file: zsl_train_val.prototxt
I0425 13:03:40.925379 29258 net.cpp:277] The NetState phase (0) differed from the phase (1) specified by a rule in layer data
I0425 13:03:40.925516 29258 net.cpp:277] The NetState phase (0) differed from the phase (1) specified by a rule in layer accuracy
I0425 13:03:40.925948 29258 net.cpp:39] Initializing net from parameters: 
name: "DNN_smallobjects_ZSL_withSigmoidCrossEntropy"
layers {
  top: "data"
  top: "label"
  name: "data"
  type: HDF5_DATA
  hdf5_data_param {
    source: "Data/crop_train.txt"
    batch_size: 20
  }
  include {
    phase: TRAIN
  }
}
layers {
  bottom: "data"
  top: "conv1_7x7"
  name: "conv1_7x7"
  type: CONVOLUTION
  blobs_lr: 1
  blobs_lr: 2
  weight_decay: 1
  weight_decay: 0
  convolution_param {
    num_output: 100
    pad: 0
    kernel_size: 7
    stride: 1
    weight_filler {
      type: "uniform"
      min: -0.05
      max: 0.05
    }
    bias_filler {
      type: "uniform"
      min: -0.05
      max: 0.05
    }
  }
}
layers {
  bottom: "conv1_7x7"
  top: "conv1_7x7"
  name: "conv1_relu_7x7"
  type: RELU
}
layers {
  bottom: "conv1_7x7"
  top: "pool1_2x2"
  name: "pool1_2x2"
  type: POOLING
  pooling_param {
    pool: MAX
    kernel_size: 2
    stride: 2
  }
}
layers {
  bottom: "pool1_2x2"
  top: "conv2_4x4"
  name: "conv2_4x4"
  type: CONVOLUTION
  blobs_lr: 1
  blobs_lr: 2
  weight_decay: 1
  weight_decay: 0
  convolution_param {
    num_output: 150
    pad: 0
    kernel_size: 4
    stride: 1
    weight_filler {
      type: "uniform"
      min: -0.05
      max: 0.05
    }
    bias_filler {
      type: "uniform"
      min: -0.05
      max: 0.05
    }
  }
}
layers {
  bottom: "conv2_4x4"
  top: "conv2_4x4"
  name: "conv2_relu_4x4"
  type: RELU
}
layers {
  bottom: "conv2_4x4"
  top: "pool2_2x2"
  name: "pool2_2x2"
  type: POOLING
  pooling_param {
    pool: MAX
    kernel_size: 2
    stride: 2
  }
}
layers {
  bottom: "pool2_2x2"
  top: "conv3_4x4"
  name: "conv3_4x4"
  type: CONVOLUTION
  blobs_lr: 1
  blobs_lr: 2
  weight_decay: 1
  weight_decay: 0
  convolution_param {
    num_output: 250
    pad: 0
    kernel_size: 4
    stride: 1
    weight_filler {
      type: "uniform"
      min: -0.05
      max: 0.05
    }
    bias_filler {
      type: "uniform"
      min: -0.05
      max: 0.05
    }
  }
}
layers {
  bottom: "conv3_4x4"
  top: "conv3_4x4"
  name: "conv3_relu_4x4"
  type: RELU
}
layers {
  bottom: "conv3_4x4"
  top: "pool3_2x2"
  name: "pool3_2x2"
  type: POOLING
  pooling_param {
    pool: MAX
    kernel_size: 2
    stride: 2
  }
}
layers {
  bottom: "pool3_2x2"
  top: "fc4"
  name: "fc4"
  type: INNER_PRODUCT
  blobs_lr: 1
  blobs_lr: 2
  weight_decay: 1
  weight_decay: 0
  inner_product_param {
    num_output: 300
    weight_filler {
      type: "uniform"
      min: -0.05
      max: 0.05
    }
    bias_filler {
      type: "uniform"
      min: -0.05
      max: 0.05
    }
  }
}
layers {
  bottom: "fc4"
  top: "fc4"
  name: "relu4"
  type: RELU
}
layers {
  bottom: "fc4"
  top: "fc4"
  name: "drop4"
  type: DROPOUT
  dropout_param {
    dropout_ratio: 0.6
  }
}
layers {
  bottom: "fc4"
  top: "inter"
  name: "inter"
  type: INNER_PRODUCT
  blobs_lr: 1
  blobs_lr: 2
  weight_decay: 1
  weight_decay: 0
  inner_product_param {
    num_output: 3888
    weight_filler {
      type: "uniform"
      min: -0.05
      max: 0.05
    }
    bias_filler {
      type: "uniform"
      min: -0.05
      max: 0.05
    }
  }
}
layers {
  bottom: "inter"
  top: "inter"
  name: "drop_inter"
  type: DROPOUT
  dropout_param {
    dropout_ratio: 0.3
  }
}
layers {
  bottom: "inter"
  top: "fc5"
  name: "fixed_weights"
  type: INNER_PRODUCT
  blobs_lr: 0.001
  blobs_lr: 2
  weight_decay: 0.001
  weight_decay: 0
  inner_product_param {
    num_output: 43
    bias_filler {
      type: "uniform"
      min: -0.05
      max: 0.05
    }
  }
}
layers {
  bottom: "fc5"
  bottom: "label"
  top: "loss"
  name: "loss"
  type: SOFTMAX_LOSS
}
force_backward: true
state {
  phase: TRAIN
}
I0425 13:03:40.926229 29258 layer_factory.hpp:78] Creating layer data
I0425 13:03:40.926275 29258 net.cpp:69] Creating Layer data
I0425 13:03:40.926301 29258 net.cpp:358] data -> data
I0425 13:03:40.926352 29258 net.cpp:358] data -> label
I0425 13:03:40.926390 29258 net.cpp:98] Setting up data
I0425 13:03:40.926414 29258 hdf5_data_layer.cpp:63] Loading list of HDF5 filenames from: Data/crop_train.txt
I0425 13:03:40.926559 29258 hdf5_data_layer.cpp:77] Number of HDF5 files: 8
I0425 13:03:41.128872 29258 net.cpp:105] Top shape: 20 3 48 48 (138240)
I0425 13:03:41.128933 29258 net.cpp:105] Top shape: 20 1 1 1 (20)
I0425 13:03:41.128944 29258 layer_factory.hpp:78] Creating layer conv1_7x7
I0425 13:03:41.128969 29258 net.cpp:69] Creating Layer conv1_7x7
I0425 13:03:41.128978 29258 net.cpp:396] conv1_7x7 <- data
I0425 13:03:41.128994 29258 net.cpp:358] conv1_7x7 -> conv1_7x7
I0425 13:03:41.129011 29258 net.cpp:98] Setting up conv1_7x7
I0425 13:03:41.129521 29258 net.cpp:105] Top shape: 20 100 42 42 (3528000)
I0425 13:03:41.129544 29258 layer_factory.hpp:78] Creating layer conv1_relu_7x7
I0425 13:03:41.129554 29258 net.cpp:69] Creating Layer conv1_relu_7x7
I0425 13:03:41.129561 29258 net.cpp:396] conv1_relu_7x7 <- conv1_7x7
I0425 13:03:41.129570 29258 net.cpp:347] conv1_relu_7x7 -> conv1_7x7 (in-place)
I0425 13:03:41.129578 29258 net.cpp:98] Setting up conv1_relu_7x7
I0425 13:03:41.129585 29258 net.cpp:105] Top shape: 20 100 42 42 (3528000)
I0425 13:03:41.129591 29258 layer_factory.hpp:78] Creating layer pool1_2x2
I0425 13:03:41.129603 29258 net.cpp:69] Creating Layer pool1_2x2
I0425 13:03:41.129609 29258 net.cpp:396] pool1_2x2 <- conv1_7x7
I0425 13:03:41.129617 29258 net.cpp:358] pool1_2x2 -> pool1_2x2
I0425 13:03:41.129626 29258 net.cpp:98] Setting up pool1_2x2
I0425 13:03:41.129642 29258 net.cpp:105] Top shape: 20 100 21 21 (882000)
I0425 13:03:41.129649 29258 layer_factory.hpp:78] Creating layer conv2_4x4
I0425 13:03:41.129660 29258 net.cpp:69] Creating Layer conv2_4x4
I0425 13:03:41.129667 29258 net.cpp:396] conv2_4x4 <- pool1_2x2
I0425 13:03:41.129675 29258 net.cpp:358] conv2_4x4 -> conv2_4x4
I0425 13:03:41.129684 29258 net.cpp:98] Setting up conv2_4x4
I0425 13:03:41.131690 29258 net.cpp:105] Top shape: 20 150 18 18 (972000)
I0425 13:03:41.131706 29258 layer_factory.hpp:78] Creating layer conv2_relu_4x4
I0425 13:03:41.131714 29258 net.cpp:69] Creating Layer conv2_relu_4x4
I0425 13:03:41.131721 29258 net.cpp:396] conv2_relu_4x4 <- conv2_4x4
I0425 13:03:41.131729 29258 net.cpp:347] conv2_relu_4x4 -> conv2_4x4 (in-place)
I0425 13:03:41.131737 29258 net.cpp:98] Setting up conv2_relu_4x4
I0425 13:03:41.131743 29258 net.cpp:105] Top shape: 20 150 18 18 (972000)
I0425 13:03:41.131749 29258 layer_factory.hpp:78] Creating layer pool2_2x2
I0425 13:03:41.131757 29258 net.cpp:69] Creating Layer pool2_2x2
I0425 13:03:41.131763 29258 net.cpp:396] pool2_2x2 <- conv2_4x4
I0425 13:03:41.131772 29258 net.cpp:358] pool2_2x2 -> pool2_2x2
I0425 13:03:41.131780 29258 net.cpp:98] Setting up pool2_2x2
I0425 13:03:41.131788 29258 net.cpp:105] Top shape: 20 150 9 9 (243000)
I0425 13:03:41.131793 29258 layer_factory.hpp:78] Creating layer conv3_4x4
I0425 13:03:41.131803 29258 net.cpp:69] Creating Layer conv3_4x4
I0425 13:03:41.131809 29258 net.cpp:396] conv3_4x4 <- pool2_2x2
I0425 13:03:41.131819 29258 net.cpp:358] conv3_4x4 -> conv3_4x4
I0425 13:03:41.131827 29258 net.cpp:98] Setting up conv3_4x4
I0425 13:03:41.136804 29258 net.cpp:105] Top shape: 20 250 6 6 (180000)
I0425 13:03:41.136826 29258 layer_factory.hpp:78] Creating layer conv3_relu_4x4
I0425 13:03:41.136836 29258 net.cpp:69] Creating Layer conv3_relu_4x4
I0425 13:03:41.136842 29258 net.cpp:396] conv3_relu_4x4 <- conv3_4x4
I0425 13:03:41.136875 29258 net.cpp:347] conv3_relu_4x4 -> conv3_4x4 (in-place)
I0425 13:03:41.136884 29258 net.cpp:98] Setting up conv3_relu_4x4
I0425 13:03:41.136890 29258 net.cpp:105] Top shape: 20 250 6 6 (180000)
I0425 13:03:41.136896 29258 layer_factory.hpp:78] Creating layer pool3_2x2
I0425 13:03:41.136904 29258 net.cpp:69] Creating Layer pool3_2x2
I0425 13:03:41.136910 29258 net.cpp:396] pool3_2x2 <- conv3_4x4
I0425 13:03:41.136919 29258 net.cpp:358] pool3_2x2 -> pool3_2x2
I0425 13:03:41.136926 29258 net.cpp:98] Setting up pool3_2x2
I0425 13:03:41.136934 29258 net.cpp:105] Top shape: 20 250 3 3 (45000)
I0425 13:03:41.136940 29258 layer_factory.hpp:78] Creating layer fc4
I0425 13:03:41.136950 29258 net.cpp:69] Creating Layer fc4
I0425 13:03:41.136956 29258 net.cpp:396] fc4 <- pool3_2x2
I0425 13:03:41.136965 29258 net.cpp:358] fc4 -> fc4
I0425 13:03:41.136976 29258 net.cpp:98] Setting up fc4
I0425 13:03:41.142578 29258 net.cpp:105] Top shape: 20 300 1 1 (6000)
I0425 13:03:41.142601 29258 layer_factory.hpp:78] Creating layer relu4
I0425 13:03:41.142611 29258 net.cpp:69] Creating Layer relu4
I0425 13:03:41.142617 29258 net.cpp:396] relu4 <- fc4
I0425 13:03:41.142624 29258 net.cpp:347] relu4 -> fc4 (in-place)
I0425 13:03:41.142632 29258 net.cpp:98] Setting up relu4
I0425 13:03:41.142639 29258 net.cpp:105] Top shape: 20 300 1 1 (6000)
I0425 13:03:41.142644 29258 layer_factory.hpp:78] Creating layer drop4
I0425 13:03:41.142658 29258 net.cpp:69] Creating Layer drop4
I0425 13:03:41.142665 29258 net.cpp:396] drop4 <- fc4
I0425 13:03:41.142674 29258 net.cpp:347] drop4 -> fc4 (in-place)
I0425 13:03:41.142683 29258 net.cpp:98] Setting up drop4
I0425 13:03:41.142691 29258 net.cpp:105] Top shape: 20 300 1 1 (6000)
I0425 13:03:41.142698 29258 layer_factory.hpp:78] Creating layer inter
I0425 13:03:41.142707 29258 net.cpp:69] Creating Layer inter
I0425 13:03:41.142714 29258 net.cpp:396] inter <- fc4
I0425 13:03:41.142721 29258 net.cpp:358] inter -> inter
I0425 13:03:41.142730 29258 net.cpp:98] Setting up inter
I0425 13:03:41.152420 29258 net.cpp:105] Top shape: 20 3888 1 1 (77760)
I0425 13:03:41.152444 29258 layer_factory.hpp:78] Creating layer drop_inter
I0425 13:03:41.152454 29258 net.cpp:69] Creating Layer drop_inter
I0425 13:03:41.152462 29258 net.cpp:396] drop_inter <- inter
I0425 13:03:41.152470 29258 net.cpp:347] drop_inter -> inter (in-place)
I0425 13:03:41.152480 29258 net.cpp:98] Setting up drop_inter
I0425 13:03:41.152487 29258 net.cpp:105] Top shape: 20 3888 1 1 (77760)
I0425 13:03:41.152493 29258 layer_factory.hpp:78] Creating layer fixed_weights
I0425 13:03:41.152503 29258 net.cpp:69] Creating Layer fixed_weights
I0425 13:03:41.152508 29258 net.cpp:396] fixed_weights <- inter
I0425 13:03:41.152516 29258 net.cpp:358] fixed_weights -> fc5
I0425 13:03:41.152525 29258 net.cpp:98] Setting up fixed_weights
I0425 13:03:41.152922 29258 net.cpp:105] Top shape: 20 43 1 1 (860)
I0425 13:03:41.152941 29258 layer_factory.hpp:78] Creating layer loss
I0425 13:03:41.152957 29258 net.cpp:69] Creating Layer loss
I0425 13:03:41.152964 29258 net.cpp:396] loss <- fc5
I0425 13:03:41.152971 29258 net.cpp:396] loss <- label
I0425 13:03:41.152981 29258 net.cpp:358] loss -> loss
I0425 13:03:41.152992 29258 net.cpp:98] Setting up loss
I0425 13:03:41.153008 29258 net.cpp:105] Top shape: 1 1 1 1 (1)
I0425 13:03:41.153017 29258 net.cpp:111]     with loss weight 1
I0425 13:03:41.153054 29258 net.cpp:172] loss needs backward computation.
I0425 13:03:41.153061 29258 net.cpp:172] fixed_weights needs backward computation.
I0425 13:03:41.153069 29258 net.cpp:172] drop_inter needs backward computation.
I0425 13:03:41.153074 29258 net.cpp:172] inter needs backward computation.
I0425 13:03:41.153080 29258 net.cpp:172] drop4 needs backward computation.
…
I0425 13:03:41.153213 29258 net.cpp:222] Memory required for data: 43370564
I0425 13:03:41.153797 29258 solver.cpp:154] Creating test net (#0) specified by net file: zsl_train_val.prototxt
I0425 13:03:41.153839 29258 net.cpp:277] The NetState phase (1) differed from the phase (0) specified by a rule in layer data
I0425 13:03:41.154016 29258 net.cpp:39] Initializing net from parameters: 
name: "DNN_smallobjects_ZSL_withSigmoidCrossEntropy"
layers {
  top: "data"
  top: "label"
  name: "data"
  type: HDF5_DATA
  hdf5_data_param {
    source: "Data/crop_val.txt"
    batch_size: 20
  }
  include {
    phase: TEST
  }
}
layers {
  bottom: "data"
  top: "conv1_7x7"
  name: "conv1_7x7"
  type: CONVOLUTION
  blobs_lr: 1
  blobs_lr: 2
  weight_decay: 1
  weight_decay: 0
  convolution_param {
    num_output: 100
    pad: 0
    kernel_size: 7
    stride: 1
    weight_filler {
      type: "uniform"
      min: -0.05
      max: 0.05
    }
    bias_filler {
      type: "uniform"
      min: -0.05
      max: 0.05
    }
  }
}
layers {
  bottom: "conv1_7x7"
  top: "conv1_7x7"
  name: "conv1_relu_7x7"
  type: RELU
}
layers {
  bottom: "conv1_7x7"
  top: "pool1_2x2"
  name: "pool1_2x2"
  type: POOLING
  pooling_param {
    pool: MAX
    kernel_size: 2
    stride: 2
  }
}
layers {
  bottom: "pool1_2x2"
  top: "conv2_4x4"
  name: "conv2_4x4"
  type: CONVOLUTION
  blobs_lr: 1
  blobs_lr: 2
  weight_decay: 1
  weight_decay: 0
  convolution_param {
    num_output: 150
    pad: 0
    kernel_size: 4
    stride: 1
    weight_filler {
      type: "uniform"
      min: -0.05
      max: 0.05
    }
    bias_filler {
      type: "uniform"
      min: -0.05
      max: 0.05
    }
  }
}
layers {
  bottom: "conv2_4x4"
  top: "conv2_4x4"
  name: "conv2_relu_4x4"
  type: RELU
}
layers {
  bottom: "conv2_4x4"
  top: "pool2_2x2"
  name: "pool2_2x2"
  type: POOLING
  pooling_param {
    pool: MAX
    kernel_size: 2
    stride: 2
  }
}
layers {
  bottom: "pool2_2x2"
  top: "conv3_4x4"
  name: "conv3_4x4"
  type: CONVOLUTION
  blobs_lr: 1
  blobs_lr: 2
  weight_decay: 1
  weight_decay: 0
  convolution_param {
    num_output: 250
    pad: 0
    kernel_size: 4
    stride: 1
    weight_filler {
      type: "uniform"
      min: -0.05
      max: 0.05
    }
    bias_filler {
      type: "uniform"
      min: -0.05
      max: 0.05
    }
  }
}
layers {
  bottom: "conv3_4x4"
  top: "conv3_4x4"
  name: "conv3_relu_4x4"
  type: RELU
}
layers {
  bottom: "conv3_4x4"
  top: "pool3_2x2"
  name: "pool3_2x2"
  type: POOLING
  pooling_param {
    pool: MAX
    kernel_size: 2
    stride: 2
  }
}
layers {
  bottom: "pool3_2x2"
  top: "fc4"
  name: "fc4"
  type: INNER_PRODUCT
  blobs_lr: 1
  blobs_lr: 2
  weight_decay: 1
  weight_decay: 0
  inner_product_param {
    num_output: 300
    weight_filler {
      type: "uniform"
      min: -0.05
      max: 0.05
    }
    bias_filler {
      type: "uniform"
      min: -0.05
      max: 0.05
    }
  }
}
layers {
  bottom: "fc4"
  top: "fc4"
  name: "relu4"
  type: RELU
}
layers {
  bottom: "fc4"
  top: "fc4"
  name: "drop4"
  type: DROPOUT
  dropout_param {
    dropout_ratio: 0.6
  }
}
layers {
  bottom: "fc4"
  top: "inter"
  name: "inter"
  type: INNER_PRODUCT
  blobs_lr: 1
  blobs_lr: 2
  weight_decay: 1
  weight_decay: 0
  inner_product_param {
    num_output: 3888
    weight_filler {
      type: "uniform"
      min: -0.05
      max: 0.05
    }
    bias_filler {
      type: "uniform"
      min: -0.05
      max: 0.05
    }
  }
}
layers {
  bottom: "inter"
  top: "inter"
  name: "drop_inter"
  type: DROPOUT
  dropout_param {
    dropout_ratio: 0.3
  }
}
layers {
  bottom: "inter"
  top: "fc5"
  name: "fixed_weights"
  type: INNER_PRODUCT
  blobs_lr: 0.001
  blobs_lr: 2
  weight_decay: 0.001
  weight_decay: 0
  inner_product_param {
    num_output: 43
    bias_filler {
      type: "uniform"
      min: -0.05
      max: 0.05
    }
  }
}
layers {
  bottom: "fc5"
  bottom: "label"
  top: "accuracy"
  name: "accuracy"
  type: ACCURACY
  include {
    phase: TEST
  }
}
layers {
  bottom: "fc5"
  bottom: "label"
  top: "loss"
  name: "loss"
  type: SOFTMAX_LOSS
}
force_backward: true
state {
  phase: TEST
}
I0425 13:03:41.154125 29258 layer_factory.hpp:78] Creating layer data
I0425 13:03:41.154139 29258 net.cpp:69] Creating Layer data
I0425 13:03:41.154146 29258 net.cpp:358] data -> data
I0425 13:03:41.154157 29258 net.cpp:358] data -> label
I0425 13:03:41.154166 29258 net.cpp:98] Setting up data
I0425 13:03:41.154173 29258 hdf5_data_layer.cpp:63] Loading list of HDF5 filenames from: Data/crop_val.txt
I0425 13:03:41.154199 29258 hdf5_data_layer.cpp:77] Number of HDF5 files: 2
I0425 13:03:41.374325 29258 net.cpp:105] Top shape: 20 3 48 48 (138240)
I0425 13:03:41.374385 29258 net.cpp:105] Top shape: 20 1 1 1 (20)
I0425 13:03:41.374397 29258 layer_factory.hpp:78] Creating layer label_data_1_split
I0425 13:03:41.374424 29258 net.cpp:69] Creating Layer label_data_1_split
I0425 13:03:41.374433 29258 net.cpp:396] label_data_1_split <- label
I0425 13:03:41.374445 29258 net.cpp:358] label_data_1_split -> label_data_1_split_0
I0425 13:03:41.374462 29258 net.cpp:358] label_data_1_split -> label_data_1_split_1
I0425 13:03:41.374471 29258 net.cpp:98] Setting up label_data_1_split
I0425 13:03:41.374482 29258 net.cpp:105] Top shape: 20 1 1 1 (20)
I0425 13:03:41.374490 29258 net.cpp:105] Top shape: 20 1 1 1 (20)
I0425 13:03:41.374495 29258 layer_factory.hpp:78] Creating layer conv1_7x7
I0425 13:03:41.374510 29258 net.cpp:69] Creating Layer conv1_7x7
I0425 13:03:41.374516 29258 net.cpp:396] conv1_7x7 <- data
I0425 13:03:41.374526 29258 net.cpp:358] conv1_7x7 -> conv1_7x7
I0425 13:03:41.374537 29258 net.cpp:98] Setting up conv1_7x7
I0425 13:03:41.374666 29258 net.cpp:105] Top shape: 20 100 42 42 (3528000)
I0425 13:03:41.374683 29258 layer_factory.hpp:78] Creating layer conv1_relu_7x7
I0425 13:03:41.374693 29258 net.cpp:69] Creating Layer conv1_relu_7x7
I0425 13:03:41.374701 29258 net.cpp:396] conv1_relu_7x7 <- conv1_7x7
I0425 13:03:41.374708 29258 net.cpp:347] conv1_relu_7x7 -> conv1_7x7 (in-place)
I0425 13:03:41.374717 29258 net.cpp:98] Setting up conv1_relu_7x7
I0425 13:03:41.374724 29258 net.cpp:105] Top shape: 20 100 42 42 (3528000)
I0425 13:03:41.374730 29258 layer_factory.hpp:78] Creating layer pool1_2x2
I0425 13:03:41.374742 29258 net.cpp:69] Creating Layer pool1_2x2
I0425 13:03:41.374748 29258 net.cpp:396] pool1_2x2 <- conv1_7x7
I0425 13:03:41.374757 29258 net.cpp:358] pool1_2x2 -> pool1_2x2
I0425 13:03:41.374765 29258 net.cpp:98] Setting up pool1_2x2
I0425 13:03:41.374775 29258 net.cpp:105] Top shape: 20 100 21 21 (882000)
I0425 13:03:41.374783 29258 layer_factory.hpp:78] Creating layer conv2_4x4
I0425 13:03:41.374791 29258 net.cpp:69] Creating Layer conv2_4x4
I0425 13:03:41.374797 29258 net.cpp:396] conv2_4x4 <- pool1_2x2
I0425 13:03:41.374806 29258 net.cpp:358] conv2_4x4 -> conv2_4x4
I0425 13:03:41.374815 29258 net.cpp:98] Setting up conv2_4x4
I0425 13:03:41.376642 29258 net.cpp:105] Top shape: 20 150 18 18 (972000)
I0425 13:03:41.376658 29258 layer_factory.hpp:78] Creating layer conv2_relu_4x4
I0425 13:03:41.376693 29258 net.cpp:69] Creating Layer conv2_relu_4x4
I0425 13:03:41.376703 29258 net.cpp:396] conv2_relu_4x4 <- conv2_4x4
I0425 13:03:41.376711 29258 net.cpp:347] conv2_relu_4x4 -> conv2_4x4 (in-place)
I0425 13:03:41.376732 29258 net.cpp:98] Setting up conv2_relu_4x4
I0425 13:03:41.376754 29258 net.cpp:105] Top shape: 20 150 18 18 (972000)
I0425 13:03:41.376760 29258 layer_factory.hpp:78] Creating layer pool2_2x2
I0425 13:03:41.376770 29258 net.cpp:69] Creating Layer pool2_2x2
I0425 13:03:41.376776 29258 net.cpp:396] pool2_2x2 <- conv2_4x4
I0425 13:03:41.376785 29258 net.cpp:358] pool2_2x2 -> pool2_2x2
I0425 13:03:41.376793 29258 net.cpp:98] Setting up pool2_2x2
I0425 13:03:41.376801 29258 net.cpp:105] Top shape: 20 150 9 9 (243000)
I0425 13:03:41.376807 29258 layer_factory.hpp:78] Creating layer conv3_4x4
I0425 13:03:41.376818 29258 net.cpp:69] Creating Layer conv3_4x4
I0425 13:03:41.376824 29258 net.cpp:396] conv3_4x4 <- pool2_2x2
I0425 13:03:41.376834 29258 net.cpp:358] conv3_4x4 -> conv3_4x4
I0425 13:03:41.376844 29258 net.cpp:98] Setting up conv3_4x4
I0425 13:03:41.381955 29258 net.cpp:105] Top shape: 20 250 6 6 (180000)
I0425 13:03:41.381973 29258 layer_factory.hpp:78] Creating layer conv3_relu_4x4
I0425 13:03:41.381983 29258 net.cpp:69] Creating Layer conv3_relu_4x4
I0425 13:03:41.381990 29258 net.cpp:396] conv3_relu_4x4 <- conv3_4x4
I0425 13:03:41.381999 29258 net.cpp:347] conv3_relu_4x4 -> conv3_4x4 (in-place)
I0425 13:03:41.382007 29258 net.cpp:98] Setting up conv3_relu_4x4
I0425 13:03:41.382014 29258 net.cpp:105] Top shape: 20 250 6 6 (180000)
I0425 13:03:41.382019 29258 layer_factory.hpp:78] Creating layer pool3_2x2
I0425 13:03:41.382028 29258 net.cpp:69] Creating Layer pool3_2x2
I0425 13:03:41.382035 29258 net.cpp:396] pool3_2x2 <- conv3_4x4
I0425 13:03:41.382043 29258 net.cpp:358] pool3_2x2 -> pool3_2x2
I0425 13:03:41.382051 29258 net.cpp:98] Setting up pool3_2x2
I0425 13:03:41.382058 29258 net.cpp:105] Top shape: 20 250 3 3 (45000)
I0425 13:03:41.382064 29258 layer_factory.hpp:78] Creating layer fc4
I0425 13:03:41.382076 29258 net.cpp:69] Creating Layer fc4
I0425 13:03:41.382083 29258 net.cpp:396] fc4 <- pool3_2x2
I0425 13:03:41.382092 29258 net.cpp:358] fc4 -> fc4
I0425 13:03:41.382102 29258 net.cpp:98] Setting up fc4
I0425 13:03:41.387810 29258 net.cpp:105] Top shape: 20 300 1 1 (6000)
I0425 13:03:41.387831 29258 layer_factory.hpp:78] Creating layer relu4
I0425 13:03:41.387842 29258 net.cpp:69] Creating Layer relu4
I0425 13:03:41.387850 29258 net.cpp:396] relu4 <- fc4
I0425 13:03:41.387858 29258 net.cpp:347] relu4 -> fc4 (in-place)
I0425 13:03:41.387866 29258 net.cpp:98] Setting up relu4
I0425 13:03:41.387872 29258 net.cpp:105] Top shape: 20 300 1 1 (6000)
I0425 13:03:41.387878 29258 layer_factory.hpp:78] Creating layer drop4
I0425 13:03:41.387889 29258 net.cpp:69] Creating Layer drop4
I0425 13:03:41.387897 29258 net.cpp:396] drop4 <- fc4
I0425 13:03:41.387904 29258 net.cpp:347] drop4 -> fc4 (in-place)
I0425 13:03:41.387912 29258 net.cpp:98] Setting up drop4
I0425 13:03:41.387919 29258 net.cpp:105] Top shape: 20 300 1 1 (6000)
I0425 13:03:41.387925 29258 layer_factory.hpp:78] Creating layer inter
I0425 13:03:41.387936 29258 net.cpp:69] Creating Layer inter
I0425 13:03:41.387943 29258 net.cpp:396] inter <- fc4
I0425 13:03:41.387953 29258 net.cpp:358] inter -> inter
I0425 13:03:41.387961 29258 net.cpp:98] Setting up inter
I0425 13:03:41.397863 29258 net.cpp:105] Top shape: 20 3888 1 1 (77760)
I0425 13:03:41.397898 29258 layer_factory.hpp:78] Creating layer drop_inter
I0425 13:03:41.397909 29258 net.cpp:69] Creating Layer drop_inter
I0425 13:03:41.397917 29258 net.cpp:396] drop_inter <- inter
I0425 13:03:41.397929 29258 net.cpp:347] drop_inter -> inter (in-place)
I0425 13:03:41.397938 29258 net.cpp:98] Setting up drop_inter
I0425 13:03:41.397944 29258 net.cpp:105] Top shape: 20 3888 1 1 (77760)
I0425 13:03:41.397951 29258 layer_factory.hpp:78] Creating layer fixed_weights
I0425 13:03:41.397964 29258 net.cpp:69] Creating Layer fixed_weights
I0425 13:03:41.397970 29258 net.cpp:396] fixed_weights <- inter
I0425 13:03:41.397979 29258 net.cpp:358] fixed_weights -> fc5
I0425 13:03:41.397989 29258 net.cpp:98] Setting up fixed_weights
I0425 13:03:41.398422 29258 net.cpp:105] Top shape: 20 43 1 1 (860)
I0425 13:03:41.398452 29258 layer_factory.hpp:78] Creating layer fc5_fixed_weights_0_split
I0425 13:03:41.398476 29258 net.cpp:69] Creating Layer fc5_fixed_weights_0_split
I0425 13:03:41.398483 29258 net.cpp:396] fc5_fixed_weights_0_split <- fc5
I0425 13:03:41.398491 29258 net.cpp:358] fc5_fixed_weights_0_split -> fc5_fixed_weights_0_split_0
I0425 13:03:41.398501 29258 net.cpp:358] fc5_fixed_weights_0_split -> fc5_fixed_weights_0_split_1
I0425 13:03:41.398511 29258 net.cpp:98] Setting up fc5_fixed_weights_0_split
I0425 13:03:41.398519 29258 net.cpp:105] Top shape: 20 43 1 1 (860)
I0425 13:03:41.398525 29258 net.cpp:105] Top shape: 20 43 1 1 (860)
I0425 13:03:41.398531 29258 layer_factory.hpp:78] Creating layer accuracy
I0425 13:03:41.398546 29258 net.cpp:69] Creating Layer accuracy
I0425 13:03:41.398553 29258 net.cpp:396] accuracy <- fc5_fixed_weights_0_split_0
I0425 13:03:41.398561 29258 net.cpp:396] accuracy <- label_data_1_split_0
I0425 13:03:41.398571 29258 net.cpp:358] accuracy -> accuracy
I0425 13:03:41.398579 29258 net.cpp:98] Setting up accuracy
I0425 13:03:41.398588 29258 net.cpp:105] Top shape: 1 1 1 1 (1)
I0425 13:03:41.398594 29258 layer_factory.hpp:78] Creating layer loss
I0425 13:03:41.398605 29258 net.cpp:69] Creating Layer loss
I0425 13:03:41.398612 29258 net.cpp:396] loss <- fc5_fixed_weights_0_split_1
I0425 13:03:41.398618 29258 net.cpp:396] loss <- label_data_1_split_1
I0425 13:03:41.398627 29258 net.cpp:358] loss -> loss
I0425 13:03:41.398638 29258 net.cpp:98] Setting up loss
I0425 13:03:41.398649 29258 net.cpp:105] Top shape: 1 1 1 1 (1)
I0425 13:03:41.398656 29258 net.cpp:111]     with loss weight 1
I0425 13:03:41.398674 29258 net.cpp:172] loss needs backward computation.
I0425 13:03:41.398680 29258 net.cpp:174] accuracy does not need backward computation.
I0425 13:03:41.398686 29258 net.cpp:172] fc5_fixed_weights_0_split needs backward computation.
I0425 13:03:41.398692 29258 net.cpp:172] fixed_weights needs backward computation.
…
