…
I0429 22:37:19.675374 15010 solver.cpp:70] Creating training net from net file: zsl_train_val.prototxt
I0429 22:37:19.675962 15010 net.cpp:277] The NetState phase (0) differed from the phase (1) specified by a rule in layer data
I0429 22:37:19.675989 15010 net.cpp:277] The NetState phase (0) differed from the phase (1) specified by a rule in layer accuracy
I0429 22:37:19.676154 15010 net.cpp:39] Initializing net from parameters: 
name: "DNN_smallobjects_ZSL_withSigmoidCrossEntropy"
layers {
  top: "data"
  top: "label"
  name: "data"
  type: HDF5_DATA
  hdf5_data_param {
    source: "Data/belga_train.txt"
    batch_size: 20
  }
  include {
    phase: TRAIN
  }
}
layers {
  bottom: "data"
  top: "conv1_7x7"
  name: "conv1_7x7"
  type: CONVOLUTION
  blobs_lr: 1
  blobs_lr: 2
  weight_decay: 1
  weight_decay: 0
  convolution_param {
    num_output: 100
    pad: 0
    kernel_size: 7
    stride: 1
    weight_filler {
      type: "uniform"
      min: -0.05
      max: 0.05
    }
    bias_filler {
      type: "uniform"
      min: -0.05
      max: 0.05
    }
  }
}
layers {
  bottom: "conv1_7x7"
  top: "conv1_7x7"
  name: "conv1_relu_7x7"
  type: RELU
}
layers {
  bottom: "conv1_7x7"
  top: "pool1_2x2"
  name: "pool1_2x2"
  type: POOLING
  pooling_param {
    pool: MAX
    kernel_size: 2
    stride: 2
  }
}
layers {
  bottom: "pool1_2x2"
  top: "conv2_4x4"
  name: "conv2_4x4"
  type: CONVOLUTION
  blobs_lr: 1
  blobs_lr: 2
  weight_decay: 1
  weight_decay: 0
  convolution_param {
    num_output: 150
    pad: 0
    kernel_size: 4
    stride: 1
    weight_filler {
      type: "uniform"
      min: -0.05
      max: 0.05
    }
    bias_filler {
      type: "uniform"
      min: -0.05
      max: 0.05
    }
  }
}
layers {
  bottom: "conv2_4x4"
  top: "conv2_4x4"
  name: "conv2_relu_4x4"
  type: RELU
}
layers {
  bottom: "conv2_4x4"
  top: "pool2_2x2"
  name: "pool2_2x2"
  type: POOLING
  pooling_param {
    pool: MAX
    kernel_size: 2
    stride: 2
  }
}
layers {
  bottom: "pool2_2x2"
  top: "conv3_4x4"
  name: "conv3_4x4"
  type: CONVOLUTION
  blobs_lr: 1
  blobs_lr: 2
  weight_decay: 1
  weight_decay: 0
  convolution_param {
    num_output: 250
    pad: 0
    kernel_size: 4
    stride: 1
    weight_filler {
      type: "uniform"
      min: -0.05
      max: 0.05
    }
    bias_filler {
      type: "uniform"
      min: -0.05
      max: 0.05
    }
  }
}
layers {
  bottom: "conv3_4x4"
  top: "conv3_4x4"
  name: "conv3_relu_4x4"
  type: RELU
}
layers {
  bottom: "conv3_4x4"
  top: "pool3_2x2"
  name: "pool3_2x2"
  type: POOLING
  pooling_param {
    pool: MAX
    kernel_size: 2
    stride: 2
  }
}
layers {
  bottom: "pool3_2x2"
  top: "fc4"
  name: "fc4"
  type: INNER_PRODUCT
  blobs_lr: 1
  blobs_lr: 2
  weight_decay: 1
  weight_decay: 0
  inner_product_param {
    num_output: 300
    weight_filler {
      type: "uniform"
      min: -0.05
      max: 0.05
    }
    bias_filler {
      type: "uniform"
      min: -0.05
      max: 0.05
    }
  }
}
layers {
  bottom: "fc4"
  top: "fc4"
  name: "relu4"
  type: RELU
}
layers {
  bottom: "fc4"
  top: "fc4"
  name: "drop4"
  type: DROPOUT
  dropout_param {
    dropout_ratio: 0.5
  }
}
layers {
  bottom: "fc4"
  top: "inter"
  name: "inter"
  type: INNER_PRODUCT
  blobs_lr: 1
  blobs_lr: 2
  weight_decay: 1
  weight_decay: 0
  inner_product_param {
    num_output: 3888
    weight_filler {
      type: "uniform"
      min: -0.05
      max: 0.05
    }
    bias_filler {
      type: "uniform"
      min: -0.05
      max: 0.05
    }
  }
}
layers {
  bottom: "inter"
  top: "inter"
  name: "drop_inter"
  type: DROPOUT
  dropout_param {
    dropout_ratio: 0.3
  }
}
layers {
  bottom: "inter"
  top: "fc5"
  name: "fixed_weights"
  type: INNER_PRODUCT
  blobs_lr: 0.001
  blobs_lr: 2
  weight_decay: 0.001
  weight_decay: 0
  inner_product_param {
    num_output: 10
    bias_filler {
      type: "uniform"
      min: -0.05
      max: 0.05
    }
  }
}
layers {
  bottom: "fc5"
  bottom: "label"
  top: "loss"
  name: "loss"
  type: SOFTMAX_LOSS
}
force_backward: true
state {
  phase: TRAIN
}
I0429 22:37:19.676277 15010 layer_factory.hpp:78] Creating layer data
I0429 22:37:19.676298 15010 net.cpp:69] Creating Layer data
I0429 22:37:19.676309 15010 net.cpp:358] data -> data
I0429 22:37:19.676332 15010 net.cpp:358] data -> label
I0429 22:37:19.676347 15010 net.cpp:98] Setting up data
I0429 22:37:19.676357 15010 hdf5_data_layer.cpp:63] Loading list of HDF5 filenames from: Data/belga_train.txt
I0429 22:37:19.676409 15010 hdf5_data_layer.cpp:77] Number of HDF5 files: 1
I0429 22:37:19.709880 15010 net.cpp:105] Top shape: 20 3 48 48 (138240)
I0429 22:37:19.709956 15010 net.cpp:105] Top shape: 20 1 1 1 (20)
I0429 22:37:19.709966 15010 layer_factory.hpp:78] Creating layer conv1_7x7
I0429 22:37:19.709995 15010 net.cpp:69] Creating Layer conv1_7x7
I0429 22:37:19.710002 15010 net.cpp:396] conv1_7x7 <- data
I0429 22:37:19.710021 15010 net.cpp:358] conv1_7x7 -> conv1_7x7
I0429 22:37:19.710037 15010 net.cpp:98] Setting up conv1_7x7
I0429 22:37:19.710562 15010 net.cpp:105] Top shape: 20 100 42 42 (3528000)
I0429 22:37:19.710585 15010 layer_factory.hpp:78] Creating layer conv1_relu_7x7
I0429 22:37:19.710595 15010 net.cpp:69] Creating Layer conv1_relu_7x7
I0429 22:37:19.710602 15010 net.cpp:396] conv1_relu_7x7 <- conv1_7x7
I0429 22:37:19.710610 15010 net.cpp:347] conv1_relu_7x7 -> conv1_7x7 (in-place)
I0429 22:37:19.710619 15010 net.cpp:98] Setting up conv1_relu_7x7
I0429 22:37:19.710626 15010 net.cpp:105] Top shape: 20 100 42 42 (3528000)
I0429 22:37:19.710633 15010 layer_factory.hpp:78] Creating layer pool1_2x2
I0429 22:37:19.710644 15010 net.cpp:69] Creating Layer pool1_2x2
I0429 22:37:19.710650 15010 net.cpp:396] pool1_2x2 <- conv1_7x7
I0429 22:37:19.710657 15010 net.cpp:358] pool1_2x2 -> pool1_2x2
I0429 22:37:19.710667 15010 net.cpp:98] Setting up pool1_2x2
I0429 22:37:19.710683 15010 net.cpp:105] Top shape: 20 100 21 21 (882000)
I0429 22:37:19.710690 15010 layer_factory.hpp:78] Creating layer conv2_4x4
I0429 22:37:19.710700 15010 net.cpp:69] Creating Layer conv2_4x4
I0429 22:37:19.710706 15010 net.cpp:396] conv2_4x4 <- pool1_2x2
I0429 22:37:19.710714 15010 net.cpp:358] conv2_4x4 -> conv2_4x4
I0429 22:37:19.710723 15010 net.cpp:98] Setting up conv2_4x4
I0429 22:37:19.712882 15010 net.cpp:105] Top shape: 20 150 18 18 (972000)
I0429 22:37:19.712896 15010 layer_factory.hpp:78] Creating layer conv2_relu_4x4
I0429 22:37:19.712905 15010 net.cpp:69] Creating Layer conv2_relu_4x4
I0429 22:37:19.712911 15010 net.cpp:396] conv2_relu_4x4 <- conv2_4x4
I0429 22:37:19.712919 15010 net.cpp:347] conv2_relu_4x4 -> conv2_4x4 (in-place)
I0429 22:37:19.712927 15010 net.cpp:98] Setting up conv2_relu_4x4
I0429 22:37:19.712934 15010 net.cpp:105] Top shape: 20 150 18 18 (972000)
I0429 22:37:19.712939 15010 layer_factory.hpp:78] Creating layer pool2_2x2
I0429 22:37:19.712947 15010 net.cpp:69] Creating Layer pool2_2x2
I0429 22:37:19.712954 15010 net.cpp:396] pool2_2x2 <- conv2_4x4
I0429 22:37:19.712961 15010 net.cpp:358] pool2_2x2 -> pool2_2x2
I0429 22:37:19.712970 15010 net.cpp:98] Setting up pool2_2x2
I0429 22:37:19.712976 15010 net.cpp:105] Top shape: 20 150 9 9 (243000)
I0429 22:37:19.712983 15010 layer_factory.hpp:78] Creating layer conv3_4x4
I0429 22:37:19.712991 15010 net.cpp:69] Creating Layer conv3_4x4
I0429 22:37:19.712997 15010 net.cpp:396] conv3_4x4 <- pool2_2x2
I0429 22:37:19.713006 15010 net.cpp:358] conv3_4x4 -> conv3_4x4
I0429 22:37:19.713014 15010 net.cpp:98] Setting up conv3_4x4
I0429 22:37:19.717980 15010 net.cpp:105] Top shape: 20 250 6 6 (180000)
I0429 22:37:19.717998 15010 layer_factory.hpp:78] Creating layer conv3_relu_4x4
I0429 22:37:19.718008 15010 net.cpp:69] Creating Layer conv3_relu_4x4
I0429 22:37:19.718031 15010 net.cpp:396] conv3_relu_4x4 <- conv3_4x4
I0429 22:37:19.718051 15010 net.cpp:347] conv3_relu_4x4 -> conv3_4x4 (in-place)
I0429 22:37:19.718060 15010 net.cpp:98] Setting up conv3_relu_4x4
I0429 22:37:19.718066 15010 net.cpp:105] Top shape: 20 250 6 6 (180000)
I0429 22:37:19.718072 15010 layer_factory.hpp:78] Creating layer pool3_2x2
I0429 22:37:19.718080 15010 net.cpp:69] Creating Layer pool3_2x2
I0429 22:37:19.718086 15010 net.cpp:396] pool3_2x2 <- conv3_4x4
I0429 22:37:19.718092 15010 net.cpp:358] pool3_2x2 -> pool3_2x2
I0429 22:37:19.718101 15010 net.cpp:98] Setting up pool3_2x2
I0429 22:37:19.718107 15010 net.cpp:105] Top shape: 20 250 3 3 (45000)
I0429 22:37:19.718113 15010 layer_factory.hpp:78] Creating layer fc4
I0429 22:37:19.718123 15010 net.cpp:69] Creating Layer fc4
I0429 22:37:19.718128 15010 net.cpp:396] fc4 <- pool3_2x2
I0429 22:37:19.718137 15010 net.cpp:358] fc4 -> fc4
I0429 22:37:19.718147 15010 net.cpp:98] Setting up fc4
I0429 22:37:19.723637 15010 net.cpp:105] Top shape: 20 300 1 1 (6000)
I0429 22:37:19.723657 15010 layer_factory.hpp:78] Creating layer relu4
I0429 22:37:19.723666 15010 net.cpp:69] Creating Layer relu4
I0429 22:37:19.723672 15010 net.cpp:396] relu4 <- fc4
I0429 22:37:19.723680 15010 net.cpp:347] relu4 -> fc4 (in-place)
I0429 22:37:19.723687 15010 net.cpp:98] Setting up relu4
I0429 22:37:19.723693 15010 net.cpp:105] Top shape: 20 300 1 1 (6000)
I0429 22:37:19.723700 15010 layer_factory.hpp:78] Creating layer drop4
I0429 22:37:19.723711 15010 net.cpp:69] Creating Layer drop4
I0429 22:37:19.723717 15010 net.cpp:396] drop4 <- fc4
I0429 22:37:19.723726 15010 net.cpp:347] drop4 -> fc4 (in-place)
I0429 22:37:19.723733 15010 net.cpp:98] Setting up drop4
I0429 22:37:19.723742 15010 net.cpp:105] Top shape: 20 300 1 1 (6000)
I0429 22:37:19.723747 15010 layer_factory.hpp:78] Creating layer inter
I0429 22:37:19.723755 15010 net.cpp:69] Creating Layer inter
I0429 22:37:19.723762 15010 net.cpp:396] inter <- fc4
I0429 22:37:19.723769 15010 net.cpp:358] inter -> inter
I0429 22:37:19.723778 15010 net.cpp:98] Setting up inter
I0429 22:37:19.732960 15010 net.cpp:105] Top shape: 20 3888 1 1 (77760)
I0429 22:37:19.732978 15010 layer_factory.hpp:78] Creating layer drop_inter
I0429 22:37:19.732987 15010 net.cpp:69] Creating Layer drop_inter
I0429 22:37:19.732993 15010 net.cpp:396] drop_inter <- inter
I0429 22:37:19.733001 15010 net.cpp:347] drop_inter -> inter (in-place)
I0429 22:37:19.733010 15010 net.cpp:98] Setting up drop_inter
I0429 22:37:19.733016 15010 net.cpp:105] Top shape: 20 3888 1 1 (77760)
I0429 22:37:19.733021 15010 layer_factory.hpp:78] Creating layer fixed_weights
I0429 22:37:19.733029 15010 net.cpp:69] Creating Layer fixed_weights
I0429 22:37:19.733036 15010 net.cpp:396] fixed_weights <- inter
I0429 22:37:19.733043 15010 net.cpp:358] fixed_weights -> fc5
I0429 22:37:19.733052 15010 net.cpp:98] Setting up fixed_weights
I0429 22:37:19.733088 15010 net.cpp:105] Top shape: 20 10 1 1 (200)
I0429 22:37:19.733100 15010 layer_factory.hpp:78] Creating layer loss
I0429 22:37:19.733113 15010 net.cpp:69] Creating Layer loss
I0429 22:37:19.733119 15010 net.cpp:396] loss <- fc5
I0429 22:37:19.733125 15010 net.cpp:396] loss <- label
I0429 22:37:19.733134 15010 net.cpp:358] loss -> loss
I0429 22:37:19.733144 15010 net.cpp:98] Setting up loss
I0429 22:37:19.733158 15010 net.cpp:105] Top shape: 1 1 1 1 (1)
I0429 22:37:19.733165 15010 net.cpp:111]     with loss weight 1
I0429 22:37:19.733196 15010 net.cpp:172] loss needs backward computation.
I0429 22:37:19.733202 15010 net.cpp:172] fixed_weights needs backward computation.
I0429 22:37:19.733209 15010 net.cpp:172] drop_inter needs backward computation.
I0429 22:37:19.733214 15010 net.cpp:172] inter needs backward computation.
I0429 22:37:19.733221 15010 net.cpp:172] drop4 needs backward computation.
…
I0429 22:37:19.733338 15010 net.cpp:222] Memory required for data: 43367924
I0429 22:37:19.733922 15010 solver.cpp:154] Creating test net (#0) specified by net file: zsl_train_val.prototxt
I0429 22:37:19.733968 15010 net.cpp:277] The NetState phase (1) differed from the phase (0) specified by a rule in layer data
I0429 22:37:19.734139 15010 net.cpp:39] Initializing net from parameters: 
name: "DNN_smallobjects_ZSL_withSigmoidCrossEntropy"
layers {
  top: "data"
  top: "label"
  name: "data"
  type: HDF5_DATA
  hdf5_data_param {
    source: "Data/belga_val.txt"
    batch_size: 20
  }
  include {
    phase: TEST
  }
}
layers {
  bottom: "data"
  top: "conv1_7x7"
  name: "conv1_7x7"
  type: CONVOLUTION
  blobs_lr: 1
  blobs_lr: 2
  weight_decay: 1
  weight_decay: 0
  convolution_param {
    num_output: 100
    pad: 0
    kernel_size: 7
    stride: 1
    weight_filler {
      type: "uniform"
      min: -0.05
      max: 0.05
    }
    bias_filler {
      type: "uniform"
      min: -0.05
      max: 0.05
    }
  }
}
layers {
  bottom: "conv1_7x7"
  top: "conv1_7x7"
  name: "conv1_relu_7x7"
  type: RELU
}
layers {
  bottom: "conv1_7x7"
  top: "pool1_2x2"
  name: "pool1_2x2"
  type: POOLING
  pooling_param {
    pool: MAX
    kernel_size: 2
    stride: 2
  }
}
layers {
  bottom: "pool1_2x2"
  top: "conv2_4x4"
  name: "conv2_4x4"
  type: CONVOLUTION
  blobs_lr: 1
  blobs_lr: 2
  weight_decay: 1
  weight_decay: 0
  convolution_param {
    num_output: 150
    pad: 0
    kernel_size: 4
    stride: 1
    weight_filler {
      type: "uniform"
      min: -0.05
      max: 0.05
    }
    bias_filler {
      type: "uniform"
      min: -0.05
      max: 0.05
    }
  }
}
layers {
  bottom: "conv2_4x4"
  top: "conv2_4x4"
  name: "conv2_relu_4x4"
  type: RELU
}
layers {
  bottom: "conv2_4x4"
  top: "pool2_2x2"
  name: "pool2_2x2"
  type: POOLING
  pooling_param {
    pool: MAX
    kernel_size: 2
    stride: 2
  }
}
layers {
  bottom: "pool2_2x2"
  top: "conv3_4x4"
  name: "conv3_4x4"
  type: CONVOLUTION
  blobs_lr: 1
  blobs_lr: 2
  weight_decay: 1
  weight_decay: 0
  convolution_param {
    num_output: 250
    pad: 0
    kernel_size: 4
    stride: 1
    weight_filler {
      type: "uniform"
      min: -0.05
      max: 0.05
    }
    bias_filler {
      type: "uniform"
      min: -0.05
      max: 0.05
    }
  }
}
layers {
  bottom: "conv3_4x4"
  top: "conv3_4x4"
  name: "conv3_relu_4x4"
  type: RELU
}
layers {
  bottom: "conv3_4x4"
  top: "pool3_2x2"
  name: "pool3_2x2"
  type: POOLING
  pooling_param {
    pool: MAX
    kernel_size: 2
    stride: 2
  }
}
layers {
  bottom: "pool3_2x2"
  top: "fc4"
  name: "fc4"
  type: INNER_PRODUCT
  blobs_lr: 1
  blobs_lr: 2
  weight_decay: 1
  weight_decay: 0
  inner_product_param {
    num_output: 300
    weight_filler {
      type: "uniform"
      min: -0.05
      max: 0.05
    }
    bias_filler {
      type: "uniform"
      min: -0.05
      max: 0.05
    }
  }
}
layers {
  bottom: "fc4"
  top: "fc4"
  name: "relu4"
  type: RELU
}
layers {
  bottom: "fc4"
  top: "fc4"
  name: "drop4"
  type: DROPOUT
  dropout_param {
    dropout_ratio: 0.5
  }
}
layers {
  bottom: "fc4"
  top: "inter"
  name: "inter"
  type: INNER_PRODUCT
  blobs_lr: 1
  blobs_lr: 2
  weight_decay: 1
  weight_decay: 0
  inner_product_param {
    num_output: 3888
    weight_filler {
      type: "uniform"
      min: -0.05
      max: 0.05
    }
    bias_filler {
      type: "uniform"
      min: -0.05
      max: 0.05
    }
  }
}
layers {
  bottom: "inter"
  top: "inter"
  name: "drop_inter"
  type: DROPOUT
  dropout_param {
    dropout_ratio: 0.3
  }
}
layers {
  bottom: "inter"
  top: "fc5"
  name: "fixed_weights"
  type: INNER_PRODUCT
  blobs_lr: 0.001
  blobs_lr: 2
  weight_decay: 0.001
  weight_decay: 0
  inner_product_param {
    num_output: 10
    bias_filler {
      type: "uniform"
      min: -0.05
      max: 0.05
    }
  }
}
layers {
  bottom: "fc5"
  bottom: "label"
  top: "accuracy"
  name: "accuracy"
  type: ACCURACY
  include {
    phase: TEST
  }
}
layers {
  bottom: "fc5"
  bottom: "label"
  top: "loss"
  name: "loss"
  type: SOFTMAX_LOSS
}
force_backward: true
state {
  phase: TEST
}
I0429 22:37:19.734242 15010 layer_factory.hpp:78] Creating layer data
I0429 22:37:19.734254 15010 net.cpp:69] Creating Layer data
I0429 22:37:19.734262 15010 net.cpp:358] data -> data
I0429 22:37:19.734273 15010 net.cpp:358] data -> label
I0429 22:37:19.734282 15010 net.cpp:98] Setting up data
I0429 22:37:19.734289 15010 hdf5_data_layer.cpp:63] Loading list of HDF5 filenames from: Data/belga_val.txt
I0429 22:37:19.734309 15010 hdf5_data_layer.cpp:77] Number of HDF5 files: 1
I0429 22:37:19.745707 15010 net.cpp:105] Top shape: 20 3 48 48 (138240)
I0429 22:37:19.745772 15010 net.cpp:105] Top shape: 20 1 1 1 (20)
I0429 22:37:19.745784 15010 layer_factory.hpp:78] Creating layer label_data_1_split
I0429 22:37:19.745812 15010 net.cpp:69] Creating Layer label_data_1_split
I0429 22:37:19.745820 15010 net.cpp:396] label_data_1_split <- label
I0429 22:37:19.745833 15010 net.cpp:358] label_data_1_split -> label_data_1_split_0
I0429 22:37:19.745851 15010 net.cpp:358] label_data_1_split -> label_data_1_split_1
I0429 22:37:19.745861 15010 net.cpp:98] Setting up label_data_1_split
I0429 22:37:19.745870 15010 net.cpp:105] Top shape: 20 1 1 1 (20)
I0429 22:37:19.745877 15010 net.cpp:105] Top shape: 20 1 1 1 (20)
I0429 22:37:19.745883 15010 layer_factory.hpp:78] Creating layer conv1_7x7
I0429 22:37:19.745898 15010 net.cpp:69] Creating Layer conv1_7x7
I0429 22:37:19.745903 15010 net.cpp:396] conv1_7x7 <- data
I0429 22:37:19.745913 15010 net.cpp:358] conv1_7x7 -> conv1_7x7
I0429 22:37:19.745924 15010 net.cpp:98] Setting up conv1_7x7
I0429 22:37:19.746057 15010 net.cpp:105] Top shape: 20 100 42 42 (3528000)
I0429 22:37:19.746074 15010 layer_factory.hpp:78] Creating layer conv1_relu_7x7
I0429 22:37:19.746084 15010 net.cpp:69] Creating Layer conv1_relu_7x7
I0429 22:37:19.746090 15010 net.cpp:396] conv1_relu_7x7 <- conv1_7x7
I0429 22:37:19.746099 15010 net.cpp:347] conv1_relu_7x7 -> conv1_7x7 (in-place)
I0429 22:37:19.746107 15010 net.cpp:98] Setting up conv1_relu_7x7
I0429 22:37:19.746114 15010 net.cpp:105] Top shape: 20 100 42 42 (3528000)
I0429 22:37:19.746120 15010 layer_factory.hpp:78] Creating layer pool1_2x2
I0429 22:37:19.746130 15010 net.cpp:69] Creating Layer pool1_2x2
I0429 22:37:19.746137 15010 net.cpp:396] pool1_2x2 <- conv1_7x7
I0429 22:37:19.746145 15010 net.cpp:358] pool1_2x2 -> pool1_2x2
I0429 22:37:19.746155 15010 net.cpp:98] Setting up pool1_2x2
I0429 22:37:19.746165 15010 net.cpp:105] Top shape: 20 100 21 21 (882000)
I0429 22:37:19.746170 15010 layer_factory.hpp:78] Creating layer conv2_4x4
I0429 22:37:19.746179 15010 net.cpp:69] Creating Layer conv2_4x4
I0429 22:37:19.746186 15010 net.cpp:396] conv2_4x4 <- pool1_2x2
I0429 22:37:19.746196 15010 net.cpp:358] conv2_4x4 -> conv2_4x4
I0429 22:37:19.746203 15010 net.cpp:98] Setting up conv2_4x4
I0429 22:37:19.748009 15010 net.cpp:105] Top shape: 20 150 18 18 (972000)
I0429 22:37:19.748024 15010 layer_factory.hpp:78] Creating layer conv2_relu_4x4
I0429 22:37:19.748034 15010 net.cpp:69] Creating Layer conv2_relu_4x4
I0429 22:37:19.748040 15010 net.cpp:396] conv2_relu_4x4 <- conv2_4x4
I0429 22:37:19.748047 15010 net.cpp:347] conv2_relu_4x4 -> conv2_4x4 (in-place)
I0429 22:37:19.748073 15010 net.cpp:98] Setting up conv2_relu_4x4
I0429 22:37:19.748091 15010 net.cpp:105] Top shape: 20 150 18 18 (972000)
I0429 22:37:19.748098 15010 layer_factory.hpp:78] Creating layer pool2_2x2
I0429 22:37:19.748106 15010 net.cpp:69] Creating Layer pool2_2x2
I0429 22:37:19.748111 15010 net.cpp:396] pool2_2x2 <- conv2_4x4
I0429 22:37:19.748121 15010 net.cpp:358] pool2_2x2 -> pool2_2x2
I0429 22:37:19.748128 15010 net.cpp:98] Setting up pool2_2x2
I0429 22:37:19.748136 15010 net.cpp:105] Top shape: 20 150 9 9 (243000)
I0429 22:37:19.748142 15010 layer_factory.hpp:78] Creating layer conv3_4x4
I0429 22:37:19.748152 15010 net.cpp:69] Creating Layer conv3_4x4
I0429 22:37:19.748158 15010 net.cpp:396] conv3_4x4 <- pool2_2x2
I0429 22:37:19.748167 15010 net.cpp:358] conv3_4x4 -> conv3_4x4
I0429 22:37:19.748177 15010 net.cpp:98] Setting up conv3_4x4
I0429 22:37:19.753134 15010 net.cpp:105] Top shape: 20 250 6 6 (180000)
I0429 22:37:19.753150 15010 layer_factory.hpp:78] Creating layer conv3_relu_4x4
I0429 22:37:19.753160 15010 net.cpp:69] Creating Layer conv3_relu_4x4
I0429 22:37:19.753166 15010 net.cpp:396] conv3_relu_4x4 <- conv3_4x4
I0429 22:37:19.753175 15010 net.cpp:347] conv3_relu_4x4 -> conv3_4x4 (in-place)
I0429 22:37:19.753182 15010 net.cpp:98] Setting up conv3_relu_4x4
I0429 22:37:19.753188 15010 net.cpp:105] Top shape: 20 250 6 6 (180000)
I0429 22:37:19.753195 15010 layer_factory.hpp:78] Creating layer pool3_2x2
I0429 22:37:19.753201 15010 net.cpp:69] Creating Layer pool3_2x2
I0429 22:37:19.753208 15010 net.cpp:396] pool3_2x2 <- conv3_4x4
I0429 22:37:19.753216 15010 net.cpp:358] pool3_2x2 -> pool3_2x2
I0429 22:37:19.753224 15010 net.cpp:98] Setting up pool3_2x2
I0429 22:37:19.753232 15010 net.cpp:105] Top shape: 20 250 3 3 (45000)
I0429 22:37:19.753237 15010 layer_factory.hpp:78] Creating layer fc4
I0429 22:37:19.753247 15010 net.cpp:69] Creating Layer fc4
I0429 22:37:19.753252 15010 net.cpp:396] fc4 <- pool3_2x2
I0429 22:37:19.753262 15010 net.cpp:358] fc4 -> fc4
I0429 22:37:19.753271 15010 net.cpp:98] Setting up fc4
I0429 22:37:19.758774 15010 net.cpp:105] Top shape: 20 300 1 1 (6000)
I0429 22:37:19.758793 15010 layer_factory.hpp:78] Creating layer relu4
I0429 22:37:19.758803 15010 net.cpp:69] Creating Layer relu4
I0429 22:37:19.758810 15010 net.cpp:396] relu4 <- fc4
I0429 22:37:19.758817 15010 net.cpp:347] relu4 -> fc4 (in-place)
I0429 22:37:19.758826 15010 net.cpp:98] Setting up relu4
I0429 22:37:19.758831 15010 net.cpp:105] Top shape: 20 300 1 1 (6000)
I0429 22:37:19.758837 15010 layer_factory.hpp:78] Creating layer drop4
I0429 22:37:19.758846 15010 net.cpp:69] Creating Layer drop4
I0429 22:37:19.758853 15010 net.cpp:396] drop4 <- fc4
I0429 22:37:19.758862 15010 net.cpp:347] drop4 -> fc4 (in-place)
I0429 22:37:19.758869 15010 net.cpp:98] Setting up drop4
I0429 22:37:19.758877 15010 net.cpp:105] Top shape: 20 300 1 1 (6000)
I0429 22:37:19.758882 15010 layer_factory.hpp:78] Creating layer inter
I0429 22:37:19.758891 15010 net.cpp:69] Creating Layer inter
I0429 22:37:19.758898 15010 net.cpp:396] inter <- fc4
I0429 22:37:19.758905 15010 net.cpp:358] inter -> inter
I0429 22:37:19.758913 15010 net.cpp:98] Setting up inter
I0429 22:37:19.767998 15010 net.cpp:105] Top shape: 20 3888 1 1 (77760)
I0429 22:37:19.768017 15010 layer_factory.hpp:78] Creating layer drop_inter
I0429 22:37:19.768025 15010 net.cpp:69] Creating Layer drop_inter
I0429 22:37:19.768031 15010 net.cpp:396] drop_inter <- inter
I0429 22:37:19.768040 15010 net.cpp:347] drop_inter -> inter (in-place)
I0429 22:37:19.768049 15010 net.cpp:98] Setting up drop_inter
I0429 22:37:19.768055 15010 net.cpp:105] Top shape: 20 3888 1 1 (77760)
I0429 22:37:19.768061 15010 layer_factory.hpp:78] Creating layer fixed_weights
I0429 22:37:19.768070 15010 net.cpp:69] Creating Layer fixed_weights
I0429 22:37:19.768076 15010 net.cpp:396] fixed_weights <- inter
I0429 22:37:19.768085 15010 net.cpp:358] fixed_weights -> fc5
I0429 22:37:19.768093 15010 net.cpp:98] Setting up fixed_weights
I0429 22:37:19.768187 15010 net.cpp:105] Top shape: 20 10 1 1 (200)
I0429 22:37:19.768204 15010 layer_factory.hpp:78] Creating layer fc5_fixed_weights_0_split
I0429 22:37:19.768219 15010 net.cpp:69] Creating Layer fc5_fixed_weights_0_split
I0429 22:37:19.768225 15010 net.cpp:396] fc5_fixed_weights_0_split <- fc5
I0429 22:37:19.768234 15010 net.cpp:358] fc5_fixed_weights_0_split -> fc5_fixed_weights_0_split_0
I0429 22:37:19.768244 15010 net.cpp:358] fc5_fixed_weights_0_split -> fc5_fixed_weights_0_split_1
I0429 22:37:19.768252 15010 net.cpp:98] Setting up fc5_fixed_weights_0_split
I0429 22:37:19.768259 15010 net.cpp:105] Top shape: 20 10 1 1 (200)
I0429 22:37:19.768265 15010 net.cpp:105] Top shape: 20 10 1 1 (200)
I0429 22:37:19.768270 15010 layer_factory.hpp:78] Creating layer accuracy
I0429 22:37:19.768281 15010 net.cpp:69] Creating Layer accuracy
I0429 22:37:19.768288 15010 net.cpp:396] accuracy <- fc5_fixed_weights_0_split_0
I0429 22:37:19.768296 15010 net.cpp:396] accuracy <- label_data_1_split_0
I0429 22:37:19.768303 15010 net.cpp:358] accuracy -> accuracy
I0429 22:37:19.768312 15010 net.cpp:98] Setting up accuracy
I0429 22:37:19.768321 15010 net.cpp:105] Top shape: 1 1 1 1 (1)
I0429 22:37:19.768327 15010 layer_factory.hpp:78] Creating layer loss
I0429 22:37:19.768337 15010 net.cpp:69] Creating Layer loss
I0429 22:37:19.768343 15010 net.cpp:396] loss <- fc5_fixed_weights_0_split_1
I0429 22:37:19.768350 15010 net.cpp:396] loss <- label_data_1_split_1
I0429 22:37:19.768358 15010 net.cpp:358] loss -> loss
I0429 22:37:19.768368 15010 net.cpp:98] Setting up loss
I0429 22:37:19.768379 15010 net.cpp:105] Top shape: 1 1 1 1 (1)
I0429 22:37:19.768385 15010 net.cpp:111]     with loss weight 1
I0429 22:37:19.768404 15010 net.cpp:172] loss needs backward computation.
I0429 22:37:19.768410 15010 net.cpp:174] accuracy does not need backward computation.
I0429 22:37:19.768416 15010 net.cpp:172] fc5_fixed_weights_0_split needs backward computation.
I0429 22:37:19.768422 15010 net.cpp:172] fixed_weights needs backward computation.
…
